homework-8/clothing_classifier_mobilenet_v4.onnx (onnx, 166289 bytes, 13 tensors)

output_layer.bias f4 [10]
-0.03690316 0.0039219954 -0.016889675 -0.10234478 -0.12379562 -0.06161774 -0.037968155 0.058763728
-0.021800013 -0.09530667
00000000: c527 17bd 1584 803b 375c 8abc 249a d1bd
00000010: 8f88 fdbd e262 7cbd 7f84 1bbd 3cb2 703d
00000020: f195 b2bc 2530 c3bd

input_bias f4 [32]
-0.07925883 0.5620833 0.35607672 0.2818754 0.98557484 0.6181297 0.4932651 0.53425425
0.61739707 -0.0020560045 -0.10823783 0.94223654 0.4426685 -0.41784748 -0.0030787152 0.0033572137
-0.043481603 -0.017816875 0.33211282 0.17470574 -0.24587835 0.5120572 0.12456435 -0.015710453
-0.40751436 0.5077977 -0.2593631 0.59876037 -0.07570404 -0.04348836 0.26681814 0.25641817
00000000: 7452 a2bd b1e4 0f3f b04f b63e f951 903e
00000010: a24e 7c3f bf3d 1e3f 3e8d fc3e e3c4 083f
00000020: bc0d 1e3f 08be 06bb ccab ddbd 6a36 713f
00000030: 72a5 e23e 1bf0 d5be 45c4 49bb b304 5c3b
00000040: c419 32bd b2f4 91bc b10a aa3e 10e6 323e
00000050: 89c7 7bbe 2e16 033f 981b ff3d 35b3 80bc
00000060: b9a5 d0be 08ff 013f 3ecb 84be 5c48 193f
00000070: b80a 9bbd da20 32bd 639c 883e 3e49 833e

hardtanh_bias f4 [32]
-0.011895406 0.93473107 -0.15315473 0.41726205 0.25867963 0.8390878 0.8655111 0.4097734
3.863231 -0.004666377 0.3364609 0.3269329 0.78064924 -0.40478086 -0.005671667 -0.0055158664
0.00833052 0.013608518 0.007231064 0.061498784 -0.28242093 1.5655401 0.88691425 0.0012245276
0.7610736 -0.3613056 -0.35686433 0.861376 0.67258525 0.30612266 0.9670885 -0.20371667
00000000: f3e4 42bc 894a 6f3f 98d4 1cbe 5fa3 d53e
00000010: a871 843e 75ce 563f 2392 5d3f d2cd d13e
00000020: 2d3f 7740 68e8 98bb 9a44 ac3e c063 a73e
00000030: a1d8 473f 703f cfbe 64d9 b9bb 71be b4bb
00000040: bc7c 083c 43f6 5e3c 90f2 ec3b 26e6 7b3d
00000050: 7a99 90be 9e63 c83f d00c 633f 5480 a03a
00000060: b8d5 423f 0cfd b8be ecb6 b6be 2383 5c3f
00000070: 8c2e 2c3f 1cbc 9c3e 1d93 773f 1a9b 50be

hardtanh_1_bias f4 [16]
-2.1616054 0.4489762 -1.371292 1.0648016 -0.10496867 -0.4684161 -0.67363966 -1.8261834
-0.85416573 -1.6283381 1.6715629 -0.44306627 -0.7217132 -0.1736638 1.7089772 1.4771292
00000000: be57 0ac0 35e0 e53e 7f86 afbf 6b4b 883f
00000010: d0f9 d6bd 3cd4 efbe a673 2cbf 61c0 e9bf
00000020: 9baa 5abf 626d d0bf c6f5 d53f 95d9 e2be
00000030: 32c2 38bf ecd4 31be c4bf da3f 9212 bd3f

hardtanh_3_bias f4 [24]
-1.238033 0.5301293 -0.70780075 -0.19371529 -0.10029331 -0.7518016 -0.44513837 0.1883956
-0.2062703 -0.0022259047 0.017585278 0.4242119 0.13520268 1.6804907 1.3342364 0.7926187
0.20253904 -0.18786076 -0.500572 0.15455301 0.32108283 0.29061565 0.1475807 0.12480379
00000000: de77 9ebf 8eb6 073f 6e32 35bf 4d5d 46be
00000010: 9466 cdbd 1276 40bf 2de9 e3be c7ea 403e
00000020: 8638 53be 7ce0 11bb 000f 903c 4d32 d93e
00000030: 9272 0a3e 521a d73f 42c8 aa3f 0fe9 4a3f
00000040: 6566 4f3e 925e 40be 7d25 00bf 2543 1e3e
00000050: f864 a43e 93cb 943e 651f 173e 2199 ff3d

hardtanh_5_bias f4 [24]
-1.3773323 -1.0980575 0.079483144 -0.1707986 -1.2212489 1.0819775 0.8322174 0.08779769
0.09614257 -0.079158284 -2.202973 -0.645199 0.6425896 -1.194476 0.1427083 -0.3345168
0.3726617 -0.5545304 -0.51800376 0.36466828 0.9102736 0.8365328 -2.1963127 1.2822368
00000000: 6d4c b0bf 268d 8cbf 0fc8 a23d d4e5 2ebe
00000010: e251 9cbf 3d7e 8a3f 330c 553f 46cf b33d
00000020: 65e6 c43d bd1d a2bd 82fd 0cc0 c32b 25bf
00000030: c180 243f 97e4 98bf 2022 123e c945 abbe
00000040: 84cd be3e b4f5 0dbf e59b 04bf cdb5 ba3e
00000050: b107 693f 0327 563f 6390 0cc0 5620 a43f

hardtanh_7_bias f4 [32]
0.8151371 0.5516611 -0.59980446 0.69582903 0.13448697 -1.51616 -0.25384134 -0.22987558
0.03746747 -1.654107 0.7337346 1.3800827 0.6275326 0.9086789 0.04789254 -0.5208053
0.63033426 -0.090233155 0.5619548 -0.2939574 -0.16288659 0.37132815 -0.5656326 0.4002772
-0.7612437 0.99622184 -0.17248608 -1.12645 0.2674022 -1.0207072 -0.67122906 -0.1720116
00000000: d3ac 503f a939 0d3f c98c 19bf da21 323f
00000010: f4b6 093e 8811 c2bf 7ef7 81be 8164 6bbe
00000020: 7d77 193d c7b9 d3bf 08d6 3b3f 8da6 b03f
00000030: faa5 203f 2e9f 683f f82a 443d 7f53 05bf
00000040: 965d 213f 29cc b8bd 45dc 0f3f 9681 96be
00000050: becb 26be b91e be3e 4ccd 10bf 22f1 cc3e
00000060: dee0 42bf 6508 7f3f 31a0 30be 832f 90bf
00000070: f1e8 883e 89a6 82bf abd5 2bbf cf23 30be

hardtanh_9_bias f4 [32]
0.052999202 0.2031855 -0.42266983 0.6429205 -0.22825712 -0.035440262 0.16555126 -0.36223567
-0.54930216 0.09688832 0.10142877 -0.20187016 -0.43314782 -0.52649295 0.018602641 -0.35901794
0.37066928 -0.17044309 0.15191361 0.42125484 0.7646612 -0.3751562 0.21877633 -0.42652783
0.10494783 -0.14664844 -0.45465878 0.44363692 0.47602385 -0.16043562 -0.23133221 0.13117628
00000000: b115 593d dc0f 503e 2e68 d8be 7096 243f
00000010: 3cbc 69be cf29 11bd 4586 293e f476 b9be
00000020: 119f 0cbf 626d c63d e3b9 cf3d 0db7 4ebe
00000030: 8dc5 ddbe 3ec8 06bf 9164 983c 33d1 b7be
00000040: 5dc8 bd3e a288 2ebe 3e8f 1b3e b7ae d73e
00000050: d6c0 433f 7914 c0be e706 603e db61 dabe
00000060: e3ee d63d 022b 16be 09c9 e8be 6124 e33e
00000070: 66b9 f33e 3c49 24be 5ae2 6cbe 1353 063e

hardtanh_11_bias f4 [32]
-0.39761722 0.057633273 -0.25963244 0.22520702 0.25329283 0.2900584 -0.39241606 0.21844114
-0.029294467 0.60884744 0.23989327 0.15426049 0.16972566 0.24074157 0.27485168 -0.551426
-0.6207565 -0.48715326 0.095243804 0.80547833 0.31681395 0.1817303 -0.06823333 0.2426792
-0.084867395 -0.60027415 -0.3607483 0.39289406 -0.30595943 -0.49510252 0.48416454 -0.32721144
00000000: 7c94 cbbe de10 6c3d 8bee 84be ab9c 663e
00000010: 99af 813e 8982 943e c2ea c8be 09af 5f3e
00000020: f3fa efbc 6ddd 1b3f 95a6 753e 76f6 1d3e
00000030: 90cc 2d3e f584 763e 5cb9 8c3e 412a 0dbf
00000040: e6e9 1ebf 276c f9be 2f0f c33d d433 4e3f
00000050: 7035 a23e 8217 3a3e ebbd 8bbd e580 783e
00000060: f5ce adbd 91ab 19bf 00b4 b8be 6929 c93e
00000070: b7a6 9cbe 147e fdbe 6ae4 f73e 4288 a7be

hardtanh_13_bias f4 [64]
-0.4666713 -0.14280796 -0.78278863 -0.07053779 -0.6119819 -0.100880794 0.121038705 -0.8439031
-0.048051335 1.9108031 -1.2864912 1.1160029 0.070663854 -0.49871343 0.43821818 0.11687388
-0.22422704 -0.28169438 -0.1592717 -0.29157966 -0.041895647 -0.91595054 0.6845765 0.44131717
0.13375352 -0.15646759 0.75905466 -0.7978557 0.18385115 -1.0306857 0.13904878 0.26028526
1.1214308 0.45042074 0.28336188 -0.108395025 -0.11027932 -0.033456955 -1.0603367 -0.14990282
1.1395905 0.900026 -0.65600574 -0.86728257 -0.72087306 -0.024496708 0.2030357 -0.3847241
0.7716987 0.35384148 0.53614825 0.17558976 1.2462655 0.53320724 0.9171746 -0.011721516
0.93290156 -1.1177266 0.20336826 -0.2823448 -0.25409666 0.5193371 0.9778414 -0.17830874
00000000: 8aef eebe 403c 12be d664 48bf 1e76 90bd
00000010: d9aa 1cbf 979a cebd 24e3 f73d 090a 58bf
00000020: 7ad1 44bd 3295 f43f beab a4bf 2fd9 8e3f
00000030: 36b8 903d 5e57 ffbe 225e e03e 935b ef3d
00000040: c69b 65be 3f3a 90be 1f18 23be ee49 95be
00000050: c59a 2bbd bc7b 6abf 6840 2f3f 53f4 e13e
00000060: aff6 083e 0a39 20be 6851 423f 4540 4cbf
00000070: 7a43 3c3e 82ed 83bf ce62 0e3e 1c44 853e
00000080: 0b8b 8f3f 8c9d e63e cf14 913e 36fe ddbd
00000090: 20da e1bd 290a 09bd 1db9 87bf 2080 19be
000000a0: 1ade 913f 1b68 663f feef 27bf 3b06 5ebf
000000b0: 238b 38bf 52ad c8bc 97e8 4f3e 8ffa c4be
000000c0: 0c8e 453f b62a b53e 0341 093f cdcd 333e
000000d0: a185 9f3f 4580 083f f4cb 6a3f 9a0b 40bc
000000e0: a3d2 6e3f aa11 8fbf c53f 503e 7f8f 90be
000000f0: f518 82be 47f3 043f d053 7a3f 9196 36be

hardtanh_15_bias f4 [64]
-0.28704566 -0.15210624 0.08933431 0.2419466 -0.14892855 0.02326664 0.026590198 -0.52732
-0.3213784 0.02103903 -0.24382684 0.13921385 0.08983282 -0.092824295 0.06323699 0.2794597
0.2790671 0.07798059 0.34463716 -0.2590415 -0.17956579 -0.48997623 0.0170738 0.44011357
0.13765362 -0.24549809 1.0246929 -0.16218689 0.18026768 0.11196782 0.35747072 0.6832426
-0.104982734 0.14372876 -1.0845948 -0.48771027 0.57066447 -0.049071953 0.13643138 -0.24680108
-0.109556876 -0.3347209 0.26874125 -0.092559725 0.5094703 0.13660316 0.005964611 0.76841456
0.17762831 0.16790494 -0.08740402 0.2864049 0.13821504 -0.2362283 -0.33546215 0.42711166
0.37294504 -0.07912589 0.28622386 0.8805493 0.8131368 -0.6304324 0.0012952607 -0.24987099
00000000: a6f7 92be bdc1 1bbe e8f4 b63d d9c0 773e
00000010: ba80 18be ae99 be3c b0d3 d93c 72fe 06bf
00000020: b68b a4be 0b5a ac3c bead 79be 138e 0e3e
00000030: 45fa b73d aa1a bebd 6582 813d 5815 8f3e
00000040: e2e1 8e3e 4ab4 9f3d 4874 b03e 16a1 84be
00000050: 18e0 37be 2ade fabe 5bde 8b3c 9156 e13e
00000060: 12f5 0c3e da63 7bbe 2329 833f 5214 26be
00000070: 1798 383e 624f e53d 6706 b73e fde8 2e3f
00000080: 3001 d7bd a22d 133e 01d4 8abf 29b5 f9be
00000090: 1117 123f acff 48bd abb4 0b3e 6cb9 7cbe
000000a0: 5b5f e0bd 8a60 abbe 7498 893e f48f bdbd
000000b0: a56c 023f b3e1 0b3e c972 c33b d1b6 443f
000000c0: 32e4 353e 46ef 2b3e e100 b3bd aaa3 923e
000000d0: 3e88 0d3e d5e5 71be b2c1 abbe 61ae da3e
000000e0: a7f2 be3e c10c a2bd ef8b 923e ae6b 613f
000000f0: bc29 503f 0564 21bf bdc5 a93a 2ede 7fbe

hardtanh_17_bias f4 [64]
0.28951555 0.1405721 -0.3278813 -0.14122404 -0.28485382 -0.2694354 0.24968092 0.076979876
-0.45315635 0.0765375 0.16471982 -0.26256162 -0.1057804 -0.30878025 0.07361117 0.28895512
0.15643679 -0.31283057 0.35903957 0.06179676 0.297041 0.469529 0.28290927 -0.057450827
0.23114452 -0.10647528 0.16657116 -0.022362398 0.032901183 0.0024628579 0.0045382236 -0.07643222
-0.02473175 -0.42253804 0.17247184 -0.2220616 -0.18775225 -0.45205253 0.1272479 0.35549378
-0.16402966 -0.23314846 0.1882055 0.18617329 0.17463759 0.20113185 -0.074371755 0.31960008
-0.21367122 0.010134834 0.04968077 -0.40972105 -0.2966431 -0.087929875 -0.040270135 0.018622616
0.0066232537 0.04353739 -0.20098726 -0.22634286 0.9087543 0.38882217 0.23801622 -0.17328624
00000000: 623b 943e 22f2 0f3e 0fe0 a7be 099d 10be
00000010: 5cd8 91be 70f3 89be 5bac 7f3e a0a7 9d3d
00000020: 1c04 e8be b1bf 9c3d 50ac 283e 7a6e 86be
00000030: 65a3 d8bd 7218 9ebe 74c1 963d edf1 933e
00000040: f730 203e 542b a0be 09d4 b73e 991e 7d3d
00000050: c215 983e 1b66 f03e 7cd9 903e 8f51 6bbd
00000060: 26b1 6c3e b60f dabd a191 2a3e 5931 b7bc
00000070: 64c3 063d e667 213b 61b5 943b 7f88 9cbd
00000080: 3d9a cabc e856 d8be 759c 303e 1e64 63be
00000090: 2042 40be 6e73 e7be 464d 023e 4803 b63e
000000a0: 64f7 27be 78be 6ebe f1b8 403e 36a4 3e3e
000000b0: 32d4 323e 82f5 4d3e 3850 98bd 9fa2 a33e
000000c0: a1cc 5abe 930c 263c 107e 4b3d f5c6 d1be
000000d0: 9be1 97be 9414 b4bd 4cf2 24bd 758e 983c
000000e0: e107 d93b 4354 323d 9bcf 4dbe 6cc6 67be
000000f0: 1fa4 683f b313 c73e 86ba 733e f371 31be

hardtanh_19_bias f4 [64]
-0.2625715 -0.15030655 0.12682946 -0.5151456 0.55677205 -0.12308923 -0.15269837 0.24312776
-0.6900192 0.60210425 -0.06269556 -0.45013407 -0.51126456 -0.46600392 -0.3894032 -0.25613
0.21640147 -0.16048747 0.27667108 0.16274413 0.084517404 0.18441074 -0.59268886 0.16087474
-0.02195175 -0.09419486 0.28337651 0.11905859 -0.16205429 -0.23109585 -0.034156993 -0.6291314
-0.69646895 0.2258832 0.293334 0.05424556 -0.063444585 -0.14894845 -0.12582916 0.19135332
0.505573 0.011706989 -4.5398967e-05 0.092048116 -0.09189289 -0.16335648 -0.24159493 -0.39423952
0.22739081 -0.31675252 -0.03574107 -0.03162933 -0.34221783 0.28933185 0.03488079 -0.07176694
0.19779214 -0.30270928 -0.80920094 -0.32775664 0.055530064 -0.3340383 -0.043528933 0.18701106
00000000: c66f 86be f6e9 19be 95df 013e 95e0 03bf
00000010: 9d88 0e3f 3516 fcbd f65c 1cbe 7cf6 783e
00000020: 19a5 30bf 8123 1a3f 8866 80bd f977 e6be
00000030: 3ce2 02bf 1198 eebe db5f c7be 7923 83be
00000040: 5998 5d3e d456 24be d5a7 8d3e 66a6 263e
00000050: 7617 ad3d 2bd6 3c3e 75ba 17bf 59bc 243e
00000060: 28d4 b3bc 3ce9 c0bd ba16 913e fdd4 f33d
00000070: 8ff1 25be 64a4 6cbe 34e8 0bbd c10e 21bf
00000080: ca4b 32bf ed4d 673e e02f 963e 9830 5e3d
00000090: 3cef 81bd f185 18be 5cd9 00be 20f2 433e
000000a0: 3b6d 013f acce 3f3c c56a 3eb8 b983 bc3d
000000b0: 5732 bcbd ec46 27be a964 77be c3d9 c9be
000000c0: 23d9 683e 632d a2be 3a65 12bd c28d 01bd
000000d0: 2d37 afbe 4e23 943e 29df 0e3d 8cfa 92bd
000000e0: 068a 4a3e b6fc 9abe cb27 4fbf b8cf a7be
000000f0: 7e73 633d 1107 abbe 654b 32bd d47f 3f3e
